Perform shuffle on the dataset
Namespace(device='cuda:1', data='data//TDrive_o', adjdata='data/PEMS08/adj_PEMS08.pkl', adjtype='doubletransition', num_nodes=1024, channels=64, batch_size=16, learning_rate=0.001, dropout=0.3, weight_decay=0.0001, epochs=500, print_every=200, save='./logs/2024-10-23-09:46:21-', expid=1, es_patience=100)
Ranger optimizer loaded. 
Gradient Centralization usage = True
GC applied to both conv and fc layers
STAT(
  (start_conv): Conv2d(3, 64, kernel_size=(1, 1), stride=(1, 1))
  (Temb): TemporalEmbedding()
  (tree): IDGCN_Tree(
    (IDGCN): IDGCN(
      (split): Splitting()
      (conv1): Sequential(
        (0): ReplicationPad2d((3, 3, 0, 0))
        (1): Conv2d(128, 128, kernel_size=(1, 5), stride=(1, 1))
        (2): LeakyReLU(negative_slope=0.01, inplace=True)
        (3): Dropout(p=0.3, inplace=False)
        (4): Conv2d(128, 128, kernel_size=(1, 3), stride=(1, 1))
        (5): Tanh()
      )
      (conv2): Sequential(
        (0): ReplicationPad2d((3, 3, 0, 0))
        (1): Conv2d(128, 128, kernel_size=(1, 5), stride=(1, 1))
        (2): LeakyReLU(negative_slope=0.01, inplace=True)
        (3): Dropout(p=0.3, inplace=False)
        (4): Conv2d(128, 128, kernel_size=(1, 3), stride=(1, 1))
        (5): Tanh()
      )
      (conv3): Sequential(
        (0): ReplicationPad2d((3, 3, 0, 0))
        (1): Conv2d(128, 128, kernel_size=(1, 5), stride=(1, 1))
        (2): LeakyReLU(negative_slope=0.01, inplace=True)
        (3): Dropout(p=0.3, inplace=False)
        (4): Conv2d(128, 128, kernel_size=(1, 3), stride=(1, 1))
        (5): Tanh()
      )
      (conv4): Sequential(
        (0): ReplicationPad2d((3, 3, 0, 0))
        (1): Conv2d(128, 128, kernel_size=(1, 5), stride=(1, 1))
        (2): LeakyReLU(negative_slope=0.01, inplace=True)
        (3): Dropout(p=0.3, inplace=False)
        (4): Conv2d(128, 128, kernel_size=(1, 3), stride=(1, 1))
        (5): Tanh()
      )
      (dgcn): DGCN(
        (conv): Conv2d(128, 128, kernel_size=(1, 1), stride=(1, 1))
        (generator): Graph_Generator(
          (fc): Linear(in_features=2, out_features=1, bias=True)
        )
        (gcn): Diffusion_GCN(
          (conv): Conv2d(128, 128, kernel_size=(1, 1), stride=(1, 1))
          (dropout): Dropout(p=0.3, inplace=False)
        )
      )
    )
  )
  (glu): GLU(
    (conv1): Conv2d(128, 128, kernel_size=(1, 1), stride=(1, 1))
    (conv2): Conv2d(128, 128, kernel_size=(1, 1), stride=(1, 1))
    (conv3): Conv2d(128, 128, kernel_size=(1, 1), stride=(1, 1))
    (dropout): Dropout(p=0.1, inplace=False)
  )
  (regression_layer): Conv2d(128, 1, kernel_size=(1, 6), stride=(1, 1))
)
start training...
/home/user/Desktop/lay/STIDGCN-main/ranger21.py:131: UserWarning: This overload of addcmul_ is deprecated:
	addcmul_(Number value, Tensor tensor1, Tensor tensor2)
Consider using one of the following signatures instead:
	addcmul_(Tensor tensor1, Tensor tensor2, *, Number value = 1) (Triggered internally at ../torch/csrc/utils/python_arg_parser.cpp:1581.)
…
